Namespace(D_extra_layers=0, Diters=5, G_extra_layers=0, adam=False, batchSize=64, beta1=0.5, cuda=True, dataroot='dataroot/', dataset='cifar10', experiment=None, hiDiterStart=False, imageSize=32, lrD=5e-05, lrG=5e-05, mlp_D=False, mlp_G=False, nc=3, ndf=64, netD='', netG='', ngf=64, ngpu=1, niter=50, noBN=False, nz=100, rho=1e-06, wdecay=0.0, workers=2)
Random Seed:  9845
Files already downloaded and verified
C Assigned
B Assigned
C Assigned
B Assigned
C Assigned
B Assigned
C Assigned
DC_netG2 (
  (ur): ReLU (inplace)
  (uconv2): ConvTranspose2d(100, 256, kernel_size=(4, 4), stride=(1, 1), bias=False)
  (ubn2): BatchNorm2d(256, eps=1e-05, momentum=0.1, affine=True)
  (uconv3): ConvTranspose2d(256, 128, kernel_size=(4, 4), stride=(2, 2), padding=(1, 1), bias=False)
  (ubn3): BatchNorm2d(128, eps=1e-05, momentum=0.1, affine=True)
  (uconv4): ConvTranspose2d(128, 64, kernel_size=(4, 4), stride=(2, 2), padding=(1, 1), bias=False)
  (ubn4): BatchNorm2d(64, eps=1e-05, momentum=0.1, affine=True)
  (uconv5): ConvTranspose2d(64, 3, kernel_size=(4, 4), stride=(2, 2), padding=(1, 1), bias=False)
  (ufinal): Tanh ()
)
C Assigned
C Assigned
B Assigned
C Assigned
B Assigned
C Assigned
DC_netD2 (
  (conv1): Conv2d(3, 64, kernel_size=(4, 4), stride=(2, 2), padding=(1, 1), bias=False)
  (lr): LeakyReLU (0.2, inplace)
  (conv2): Conv2d(64, 128, kernel_size=(4, 4), stride=(2, 2), padding=(1, 1), bias=False)
  (bn1): BatchNorm2d(128, eps=1e-05, momentum=0.1, affine=True)
  (conv3): Conv2d(128, 256, kernel_size=(4, 4), stride=(2, 2), padding=(1, 1), bias=False)
  (bn2): BatchNorm2d(256, eps=1e-05, momentum=0.1, affine=True)
  (conv4): Conv2d(256, 1, kernel_size=(4, 4), stride=(1, 1), bias=False)
)
[0/50][50/782][10] IPM_enum: 39.6440 IPM_denom: 21.7119 IPM_ratio: 1.8259 E_P_f: 21.6319 E_Q_f: -18.0121 E_P_(f^2): 612.1061 E_Q_(f^2): 330.7051
[0/50][100/782][20] IPM_enum: 48.1652 IPM_denom: 24.4971 IPM_ratio: 1.9662 E_P_f: 24.1751 E_Q_f: -23.9900 E_P_(f^2): 613.6573 E_Q_(f^2): 586.5561
[0/50][150/782][30] IPM_enum: 34.1743 IPM_denom: 17.3331 IPM_ratio: 1.9716 E_P_f: 17.2252 E_Q_f: -16.9491 E_P_(f^2): 309.1718 E_Q_(f^2): 291.7033
…
