Namespace(D_extra_layers=0, Diters=5, G_extra_layers=0, adam=False, batchSize=64, beta1=0.5, cuda=True, dataroot='dataroot/', dataset='cifar10', experiment=None, hiDiterStart=False, imageSize=32, lrD=5e-05, lrG=5e-05, mlp_D=False, mlp_G=False, nc=3, ndf=64, netD='', netG='', ngf=64, ngpu=1, niter=50, noBN=False, nz=100, rho=1e-06, wdecay=0.0, workers=2)
Random Seed:  2699
Files already downloaded and verified
DCGAN_G (
  (main): Sequential (
    (initial.100-256.convt): ConvTranspose2d(100, 256, kernel_size=(4, 4), stride=(1, 1), bias=False)
    (initial.256.batchnorm): BatchNorm2d(256, eps=1e-05, momentum=0.1, affine=True)
    (initial.256.relu): ReLU (inplace)
    (pyramid.256-128.convt): ConvTranspose2d(256, 128, kernel_size=(4, 4), stride=(2, 2), padding=(1, 1), bias=False)
    (pyramid.128.batchnorm): BatchNorm2d(128, eps=1e-05, momentum=0.1, affine=True)
    (pyramid.128.relu): ReLU (inplace)
    (pyramid.128-64.convt): ConvTranspose2d(128, 64, kernel_size=(4, 4), stride=(2, 2), padding=(1, 1), bias=False)
    (pyramid.64.batchnorm): BatchNorm2d(64, eps=1e-05, momentum=0.1, affine=True)
    (pyramid.64.relu): ReLU (inplace)
    (final.64-3.convt): ConvTranspose2d(64, 3, kernel_size=(4, 4), stride=(2, 2), padding=(1, 1), bias=False)
    (final.3.tanh): Tanh ()
  )
)
DCGAN_D (
  (main): Sequential (
    (initial.conv.3-64): Conv2d(3, 64, kernel_size=(4, 4), stride=(2, 2), padding=(1, 1), bias=False)
    (initial.relu.64): LeakyReLU (0.2, inplace)
    (pyramid.64-128.conv): Conv2d(64, 128, kernel_size=(4, 4), stride=(2, 2), padding=(1, 1), bias=False)
    (pyramid.128.batchnorm): BatchNorm2d(128, eps=1e-05, momentum=0.1, affine=True)
    (pyramid.128.relu): LeakyReLU (0.2, inplace)
    (pyramid.128-256.conv): Conv2d(128, 256, kernel_size=(4, 4), stride=(2, 2), padding=(1, 1), bias=False)
    (pyramid.256.batchnorm): BatchNorm2d(256, eps=1e-05, momentum=0.1, affine=True)
    (pyramid.256.relu): LeakyReLU (0.2, inplace)
    (final.256-1.conv): Conv2d(256, 1, kernel_size=(4, 4), stride=(1, 1), bias=False)
  )
)
[0/50][50/782][10] IPM_enum: 40.2709 IPM_denom: 21.5152 IPM_ratio: 1.8717 E_P_f: 22.4532 E_Q_f: -17.8177 E_P_(f^2): 604.3770 E_Q_(f^2): 321.4278
[0/50][100/782][20] IPM_enum: 46.5080 IPM_denom: 23.6494 IPM_ratio: 1.9666 E_P_f: 23.9600 E_Q_f: -22.5480 E_P_(f^2): 598.9210 E_Q_(f^2): 519.6669
[0/50][150/782][30] IPM_enum: 32.2653 IPM_denom: 16.3415 IPM_ratio: 1.9744 E_P_f: 15.2719 E_Q_f: -16.9934 E_P_(f^2): 242.8366 E_Q_(f^2): 291.2522
…
