Namespace(D_extra_layers=0, Diters=5, G_extra_layers=0, adam=False, batchSize=64, beta1=0.5, cuda=True, dataroot='dataroot/', dataset='cifar10', experiment=None, hiDiterStart=False, imageSize=32, lrD=5e-05, lrG=5e-05, mlp_D=False, mlp_G=False, nc=3, ndf=64, netD='', netG='', ngf=64, ngpu=1, niter=50, noBN=False, nz=100, rho=1e-06, wdecay=0.0, workers=2)
Random Seed:  3249
Files already downloaded and verified
C Assigned
B Assigned
C Assigned
B Assigned
C Assigned
B Assigned
C Assigned
B Assigned
C Assigned
DC_netG (
  (uconv1): ConvTranspose2d(100, 256, kernel_size=(4, 4), stride=(2, 2), padding=(1, 1), bias=False)
  (ubn1): BatchNorm2d(256, eps=1e-05, momentum=0.1, affine=True)
  (ur): ReLU (inplace)
  (uconv2): ConvTranspose2d(256, 128, kernel_size=(4, 4), stride=(2, 2), padding=(1, 1), bias=False)
  (ubn2): BatchNorm2d(128, eps=1e-05, momentum=0.1, affine=True)
  (uconv3): ConvTranspose2d(128, 64, kernel_size=(4, 4), stride=(2, 2), padding=(1, 1), bias=False)
  (ubn3): BatchNorm2d(64, eps=1e-05, momentum=0.1, affine=True)
  (uconv4): ConvTranspose2d(64, 32, kernel_size=(4, 4), stride=(2, 2), padding=(1, 1), bias=False)
  (ubn4): BatchNorm2d(32, eps=1e-05, momentum=0.1, affine=True)
  (uconv5): ConvTranspose2d(32, 3, kernel_size=(4, 4), stride=(2, 2), padding=(1, 1), bias=False)
  (ufinal): Tanh ()
)
C Assigned
C Assigned
B Assigned
C Assigned
B Assigned
C Assigned
B Assigned
C Assigned
DC_netD (
  (conv1): Conv2d(3, 32, kernel_size=(4, 4), stride=(2, 2), padding=(1, 1), bias=False)
  (lr): LeakyReLU (0.2, inplace)
  (conv2): Conv2d(32, 64, kernel_size=(4, 4), stride=(2, 2), padding=(1, 1), bias=False)
  (bn1): BatchNorm2d(64, eps=1e-05, momentum=0.1, affine=True)
  (conv3): Conv2d(64, 128, kernel_size=(4, 4), stride=(2, 2), padding=(1, 1), bias=False)
  (bn2): BatchNorm2d(128, eps=1e-05, momentum=0.1, affine=True)
  (conv4): Conv2d(128, 256, kernel_size=(4, 4), stride=(2, 2), padding=(1, 1), bias=False)
  (bn3): BatchNorm2d(256, eps=1e-05, momentum=0.1, affine=True)
  (conv5): Conv2d(256, 1, kernel_size=(4, 4), stride=(2, 2), padding=(1, 1), bias=False)
)
[0/50][50/782][10] IPM_enum: 22.0351 IPM_denom: 11.4746 IPM_ratio: 1.9203 E_P_f: 10.6659 E_Q_f: -11.3692 E_P_(f^2): 127.8399 E_Q_(f^2): 135.4950
[0/50][100/782][20] IPM_enum: 28.4570 IPM_denom: 14.6737 IPM_ratio: 1.9393 E_P_f: 13.8846 E_Q_f: -14.5725 E_P_(f^2): 212.0513 E_Q_(f^2): 218.5858
[0/50][150/782][30] IPM_enum: 32.7767 IPM_denom: 16.6713 IPM_ratio: 1.9661 E_P_f: 16.2600 E_Q_f: -16.5167 E_P_(f^2): 273.8107 E_Q_(f^2): 282.0551
…
