Namespace(D_extra_layers=0, Diters=5, G_extra_layers=0, adam=False, batchSize=64, beta1=0.5, cuda=True, dataroot='dataroot/', dataset='cifar10', experiment=None, hiDiterStart=False, imageSize=32, lrD=5e-05, lrG=5e-05, mlp_D=False, mlp_G=False, nc=3, ndf=64, netD='', netG='', ngf=64, ngpu=1, niter=50, noBN=False, nz=100, rho=1e-06, wdecay=0.0, workers=2)
Random Seed:  4487
Files already downloaded and verified
C Assigned
B Assigned
C Assigned
B Assigned
C Assigned
B Assigned
C Assigned
B Assigned
C Assigned
Dense_netG2 (
  (ur): ReLU (inplace)
  (uconv2): ConvTranspose2d(100, 256, kernel_size=(4, 4), stride=(1, 1), bias=False)
  (ubn2): BatchNorm2d(256, eps=1e-05, momentum=0.1, affine=True)
  (uconv3): ConvTranspose2d(256, 128, kernel_size=(4, 4), stride=(2, 2), padding=(1, 1), bias=False)
  (ubn3): BatchNorm2d(128, eps=1e-05, momentum=0.1, affine=True)
  (uconv3_d): ConvTranspose2d(128, 128, kernel_size=(3, 3), stride=(1, 1), padding=(1, 1), bias=False)
  (ubn3_d): BatchNorm2d(128, eps=1e-05, momentum=0.1, affine=True)
  (uconv4): ConvTranspose2d(256, 64, kernel_size=(4, 4), stride=(2, 2), padding=(1, 1), bias=False)
  (ubn4): BatchNorm2d(64, eps=1e-05, momentum=0.1, affine=True)
  (uconv5): ConvTranspose2d(64, 3, kernel_size=(4, 4), stride=(2, 2), padding=(1, 1), bias=False)
  (ufinal): Tanh ()
)
C Assigned
C Assigned
B Assigned
C Assigned
B Assigned
C Assigned
B Assigned
C Assigned
Dense_netD2 (
  (conv1): Conv2d(3, 64, kernel_size=(4, 4), stride=(2, 2), padding=(1, 1), bias=False)
  (lr): LeakyReLU (0.2, inplace)
  (conv2): Conv2d(64, 128, kernel_size=(4, 4), stride=(2, 2), padding=(1, 1), bias=False)
  (bn1): BatchNorm2d(128, eps=1e-05, momentum=0.1, affine=True)
  (conv3_d): Conv2d(128, 128, kernel_size=(3, 3), stride=(1, 1), padding=(1, 1), bias=False)
  (bn2_d): BatchNorm2d(128, eps=1e-05, momentum=0.1, affine=True)
  (conv3): Conv2d(256, 256, kernel_size=(4, 4), stride=(2, 2), padding=(1, 1), bias=False)
  (bn2): BatchNorm2d(256, eps=1e-05, momentum=0.1, affine=True)
  (conv4): Conv2d(256, 1, kernel_size=(4, 4), stride=(1, 1), bias=False)
)
[0/50][50/782][10] IPM_enum: 60.9628 IPM_denom: 31.0755 IPM_ratio: 1.9618 E_P_f: 31.2255 E_Q_f: -29.7373 E_P_(f^2): 1038.4861 E_Q_(f^2): 892.8858
[0/50][100/782][20] IPM_enum: 37.8154 IPM_denom: 19.2503 IPM_ratio: 1.9644 E_P_f: 19.7673 E_Q_f: -18.0482 E_P_(f^2): 410.4532 E_Q_(f^2): 330.6938
[0/50][150/782][30] IPM_enum: 29.8020 IPM_denom: 15.1173 IPM_ratio: 1.9714 E_P_f: 15.2538 E_Q_f: -14.5482 E_P_(f^2): 244.1653 E_Q_(f^2): 212.9020
…
