Namespace(D_extra_layers=0, Diters=5, G_extra_layers=0, adam=False, batchSize=64, beta1=0.5, cuda=True, dataroot='dataroot/', dataset='cifar10', experiment=None, hiDiterStart=False, imageSize=32, lrD=5e-05, lrG=5e-05, mlp_D=False, mlp_G=False, nc=3, ndf=64, netD='', netG='', ngf=64, ngpu=1, niter=75, noBN=False, nz=100, rho=1e-06, wdecay=0.0, workers=2)
Random Seed:  5466
Files already downloaded and verified
C Assigned
B Assigned
C Assigned
B Assigned
C Assigned
B Assigned
C Assigned
B Assigned
C Assigned
B Assigned
C Assigned
Dense_netG3 (
  (ur): ReLU (inplace)
  (uconv2): ConvTranspose2d(100, 256, kernel_size=(4, 4), stride=(1, 1), bias=False)
  (ubn2): BatchNorm2d(256, eps=1e-05, momentum=0.1, affine=True)
  (uconv2_d): ConvTranspose2d(256, 256, kernel_size=(3, 3), stride=(1, 1), padding=(1, 1), bias=False)
  (ubn2_d): BatchNorm2d(256, eps=1e-05, momentum=0.1, affine=True)
  (uconv3): ConvTranspose2d(512, 128, kernel_size=(4, 4), stride=(2, 2), padding=(1, 1), bias=False)
  (ubn3): BatchNorm2d(128, eps=1e-05, momentum=0.1, affine=True)
  (uconv3_d): ConvTranspose2d(128, 128, kernel_size=(3, 3), stride=(1, 1), padding=(1, 1), bias=False)
  (ubn3_d): BatchNorm2d(128, eps=1e-05, momentum=0.1, affine=True)
  (uconv4): ConvTranspose2d(256, 64, kernel_size=(4, 4), stride=(2, 2), padding=(1, 1), bias=False)
  (ubn4): BatchNorm2d(64, eps=1e-05, momentum=0.1, affine=True)
  (uconv5): ConvTranspose2d(64, 3, kernel_size=(4, 4), stride=(2, 2), padding=(1, 1), bias=False)
  (ufinal): Tanh ()
)
C Assigned
C Assigned
B Assigned
C Assigned
B Assigned
C Assigned
B Assigned
C Assigned
B Assigned
C Assigned
Dense_netD3 (
  (conv1): Conv2d(3, 64, kernel_size=(4, 4), stride=(2, 2), padding=(1, 1), bias=False)
  (lr): LeakyReLU (0.2, inplace)
  (conv2): Conv2d(64, 128, kernel_size=(4, 4), stride=(2, 2), padding=(1, 1), bias=False)
  (bn1): BatchNorm2d(128, eps=1e-05, momentum=0.1, affine=True)
  (conv3_d): Conv2d(128, 128, kernel_size=(3, 3), stride=(1, 1), padding=(1, 1), bias=False)
  (bn2_d): BatchNorm2d(128, eps=1e-05, momentum=0.1, affine=True)
  (conv3): Conv2d(256, 256, kernel_size=(4, 4), stride=(2, 2), padding=(1, 1), bias=False)
  (bn2): BatchNorm2d(256, eps=1e-05, momentum=0.1, affine=True)
  (conv4_d): Conv2d(256, 256, kernel_size=(3, 3), stride=(1, 1), padding=(1, 1), bias=False)
  (bn3_d): BatchNorm2d(256, eps=1e-05, momentum=0.1, affine=True)
  (conv4): Conv2d(512, 1, kernel_size=(4, 4), stride=(1, 1), bias=False)
)
[0/75][50/782][10] IPM_enum: 47.2291 IPM_denom: 24.2664 IPM_ratio: 1.9463 E_P_f: 23.3759 E_Q_f: -23.8532 E_P_(f^2): 594.0251 E_Q_(f^2): 583.6960
[0/75][100/782][20] IPM_enum: 31.1151 IPM_denom: 15.8036 IPM_ratio: 1.9689 E_P_f: 15.2730 E_Q_f: -15.8421 E_P_(f^2): 246.3886 E_Q_(f^2): 253.1220
[0/75][150/782][30] IPM_enum: 31.1478 IPM_denom: 16.3014 IPM_ratio: 1.9107 E_P_f: 11.8556 E_Q_f: -19.2922 E_P_(f^2): 157.7787 E_Q_(f^2): 373.6914
…
