Namespace(D_extra_layers=0, Diters=2, G_extra_layers=0, adam=False, batchSize=64, beta1=0.5, cuda=True, dataroot='dataroot_cifar/', dataset='cifar10', experiment=None, hiDiterStart=False, imageSize=32, lrD=5e-05, lrG=5e-05, mlp_D=False, mlp_G=False, nc=3, ndf=64, netD='', netG='', ngf=64, ngpu=1, niter=50, noBN=False, nz=100, rho=3e-07, wdecay=0.0, workers=2)
Random Seed:  2
Files already downloaded and verified
Dense_netG12_r (
  (ur): ReLU (inplace)
  (uconv2): ConvTranspose2d(100, 256, kernel_size=(4, 4), stride=(1, 1), bias=False)
  (ubn2): BatchNorm2d(256, eps=1e-05, momentum=0.1, affine=True)
  (uconv2_d1): ConvTranspose2d(256, 256, kernel_size=(3, 3), stride=(1, 1), padding=(1, 1), bias=False)
  (ubn2_d1): BatchNorm2d(256, eps=1e-05, momentum=0.1, affine=True)
  (ubn2_d2p): BatchNorm2d(512, eps=1e-05, momentum=0.1, affine=True)
  (uconv2_d2): ConvTranspose2d(512, 128, kernel_size=(3, 3), stride=(1, 1), padding=(1, 1), bias=False)
  (ubn2_d2): BatchNorm2d(128, eps=1e-05, momentum=0.1, affine=True)
  (ubn2_d3p): BatchNorm2d(640, eps=1e-05, momentum=0.1, affine=True)
  (uconv2_d3): ConvTranspose2d(640, 64, kernel_size=(3, 3), stride=(1, 1), padding=(1, 1), bias=False)
  (ubn2_d3): BatchNorm2d(64, eps=1e-05, momentum=0.1, affine=True)
  (ubn2_d4p): BatchNorm2d(704, eps=1e-05, momentum=0.1, affine=True)
  (uconv2_d4): ConvTranspose2d(704, 32, kernel_size=(3, 3), stride=(1, 1), padding=(1, 1), bias=False)
  (ubn2_d4): BatchNorm2d(32, eps=1e-05, momentum=0.1, affine=True)
  (ubn3p): BatchNorm2d(736, eps=1e-05, momentum=0.1, affine=True)
  (uconv3): ConvTranspose2d(736, 128, kernel_size=(4, 4), stride=(2, 2), padding=(1, 1), bias=False)
  (ubn3): BatchNorm2d(128, eps=1e-05, momentum=0.1, affine=True)
  (uconv3_d1): ConvTranspose2d(128, 128, kernel_size=(3, 3), stride=(1, 1), padding=(1, 1), bias=False)
  (ubn3_d1): BatchNorm2d(128, eps=1e-05, momentum=0.1, affine=True)
  (ubn3_d2p): BatchNorm2d(256, eps=1e-05, momentum=0.1, affine=True)
  (uconv3_d2): ConvTranspose2d(256, 64, kernel_size=(3, 3), stride=(1, 1), padding=(1, 1), bias=False)
  (ubn3_d2): BatchNorm2d(64, eps=1e-05, momentum=0.1, affine=True)
  (ubn3_d3p): BatchNorm2d(320, eps=1e-05, momentum=0.1, affine=True)
  (uconv3_d3): ConvTranspose2d(320, 32, kernel_size=(3, 3), stride=(1, 1), padding=(1, 1), bias=False)
  (ubn3_d3): BatchNorm2d(32, eps=1e-05, momentum=0.1, affine=True)
  (ubn3_d4p): BatchNorm2d(352, eps=1e-05, momentum=0.1, affine=True)
  (uconv3_d4): ConvTranspose2d(352, 16, kernel_size=(3, 3), stride=(1, 1), padding=(1, 1), bias=False)
  (ubn3_d4): BatchNorm2d(16, eps=1e-05, momentum=0.1, affine=True)
  (ubn4p): BatchNorm2d(368, eps=1e-05, momentum=0.1, affine=True)
  (uconv4): ConvTranspose2d(368, 64, kernel_size=(4, 4), stride=(2, 2), padding=(1, 1), bias=False)
  (ubn4): BatchNorm2d(64, eps=1e-05, momentum=0.1, affine=True)
  (uconv_f1): ConvTranspose2d(64, 64, kernel_size=(3, 3), stride=(1, 1), padding=(1, 1), bias=False)
  (ubn_f1): BatchNorm2d(64, eps=1e-05, momentum=0.1, affine=True)
  (ubn_f2p): BatchNorm2d(128, eps=1e-05, momentum=0.1, affine=True)
  (uconv_f2): ConvTranspose2d(128, 32, kernel_size=(3, 3), stride=(1, 1), padding=(1, 1), bias=False)
  (ubn_f2): BatchNorm2d(32, eps=1e-05, momentum=0.1, affine=True)
  (ubn_f3p): BatchNorm2d(160, eps=1e-05, momentum=0.1, affine=True)
  (uconv_f3): ConvTranspose2d(160, 16, kernel_size=(3, 3), stride=(1, 1), padding=(1, 1), bias=False)
  (ubn_f3): BatchNorm2d(16, eps=1e-05, momentum=0.1, affine=True)
  (ubn_f4p): BatchNorm2d(176, eps=1e-05, momentum=0.1, affine=True)
  (uconv_f4): ConvTranspose2d(176, 8, kernel_size=(3, 3), stride=(1, 1), padding=(1, 1), bias=False)
  (ubn_f4): BatchNorm2d(8, eps=1e-05, momentum=0.1, affine=True)
  (ubn5p): BatchNorm2d(184, eps=1e-05, momentum=0.1, affine=True)
  (uconv5): ConvTranspose2d(184, 3, kernel_size=(4, 4), stride=(2, 2), padding=(1, 1), bias=False)
  (ufinal): Tanh ()
)
DC_netD2 (
  (conv1): Conv2d(3, 64, kernel_size=(4, 4), stride=(2, 2), padding=(1, 1), bias=False)
  (lr): LeakyReLU (0.2, inplace)
  (conv_f1): Conv2d(64, 64, kernel_size=(3, 3), stride=(1, 1), padding=(1, 1), bias=False)
  (bn_f1): BatchNorm2d(64, eps=1e-05, momentum=0.1, affine=True)
  (conv_f2): Conv2d(64, 64, kernel_size=(3, 3), stride=(1, 1), padding=(1, 1), bias=False)
  (bn_f2): BatchNorm2d(64, eps=1e-05, momentum=0.1, affine=True)
  (conv2): Conv2d(64, 128, kernel_size=(4, 4), stride=(2, 2), padding=(1, 1), bias=False)
  (bn1): BatchNorm2d(128, eps=1e-05, momentum=0.1, affine=True)
  (conv3): Conv2d(128, 256, kernel_size=(4, 4), stride=(2, 2), padding=(1, 1), bias=False)
  (bn2): BatchNorm2d(256, eps=1e-05, momentum=0.1, affine=True)
  (conv4): Conv2d(256, 1, kernel_size=(4, 4), stride=(1, 1), bias=False)
)
Len of data loader = 782
[0/50][50/782][25] IPM_enum: 4.5126 IPM_denom: 3.5857 IPM_ratio: 1.2585 E_P_f: 3.5350 E_Q_f: -0.9776 E_P_(f^2): 21.5570 E_Q_(f^2): 4.1571
[0/50][100/782][50] IPM_enum: 3.7569 IPM_denom: 2.7044 IPM_ratio: 1.3892 E_P_f: 2.7957 E_Q_f: -0.9612 E_P_(f^2): 12.3330 E_Q_(f^2): 2.2940
[0/50][150/782][75] IPM_enum: 4.1656 IPM_denom: 3.3741 IPM_ratio: 1.2346 E_P_f: 0.4608 E_Q_f: -3.7048 E_P_(f^2): 6.7833 E_Q_(f^2): 15.9861
…
