Namespace(D_extra_layers=0, Diters=2, G_extra_layers=0, adam=False, batchSize=64, beta1=0.5, cuda=True, dataroot='dataroot_cifar/', dataset='cifar10', experiment=None, hiDiterStart=False, imageSize=32, lrD=5e-05, lrG=5e-05, mlp_D=False, mlp_G=False, nc=3, ndf=64, netD='', netG='', ngf=64, ngpu=1, niter=250, noBN=False, nz=100, rho=3e-07, wdecay=0.0, workers=2)
Random Seed:  2
Files already downloaded and verified
DC_netG2 (
  (ur): ReLU (inplace)
  (uconv2): ConvTranspose2d(100, 256, kernel_size=(4, 4), stride=(1, 1), bias=False)
  (ubn2): BatchNorm2d(256, eps=1e-05, momentum=0.1, affine=True)
  (uconv3): ConvTranspose2d(256, 128, kernel_size=(4, 4), stride=(2, 2), padding=(1, 1), bias=False)
  (ubn3): BatchNorm2d(128, eps=1e-05, momentum=0.1, affine=True)
  (uconv4): ConvTranspose2d(128, 64, kernel_size=(4, 4), stride=(2, 2), padding=(1, 1), bias=False)
  (ubn4): BatchNorm2d(64, eps=1e-05, momentum=0.1, affine=True)
  (uconv_f1): ConvTranspose2d(64, 64, kernel_size=(3, 3), stride=(1, 1), padding=(1, 1), bias=False)
  (ubn_f1): BatchNorm2d(64, eps=1e-05, momentum=0.1, affine=True)
  (uconv_f2): ConvTranspose2d(64, 64, kernel_size=(3, 3), stride=(1, 1), padding=(1, 1), bias=False)
  (ubn_f2): BatchNorm2d(64, eps=1e-05, momentum=0.1, affine=True)
  (uconv5): ConvTranspose2d(64, 3, kernel_size=(4, 4), stride=(2, 2), padding=(1, 1), bias=False)
  (ufinal): Tanh ()
)
DC_netD2 (
  (conv1): Conv2d(3, 64, kernel_size=(4, 4), stride=(2, 2), padding=(1, 1), bias=False)
  (lr): LeakyReLU (0.2, inplace)
  (conv_f1): Conv2d(64, 64, kernel_size=(3, 3), stride=(1, 1), padding=(1, 1), bias=False)
  (bn_f1): BatchNorm2d(64, eps=1e-05, momentum=0.1, affine=True)
  (conv_f2): Conv2d(64, 64, kernel_size=(3, 3), stride=(1, 1), padding=(1, 1), bias=False)
  (bn_f2): BatchNorm2d(64, eps=1e-05, momentum=0.1, affine=True)
  (conv2): Conv2d(64, 128, kernel_size=(4, 4), stride=(2, 2), padding=(1, 1), bias=False)
  (bn1): BatchNorm2d(128, eps=1e-05, momentum=0.1, affine=True)
  (conv3): Conv2d(128, 256, kernel_size=(4, 4), stride=(2, 2), padding=(1, 1), bias=False)
  (bn2): BatchNorm2d(256, eps=1e-05, momentum=0.1, affine=True)
  (conv4): Conv2d(256, 1, kernel_size=(4, 4), stride=(1, 1), bias=False)
)
Len of data loader = 782
[0/250][50/782][25] IPM_enum: 22.6672 IPM_denom: 11.7491 IPM_ratio: 1.9293 E_P_f: 12.8573 E_Q_f: -9.8099 E_P_(f^2): 178.8152 E_Q_(f^2): 97.2667
[0/250][100/782][50] IPM_enum: 36.5561 IPM_denom: 18.5003 IPM_ratio: 1.9760 E_P_f: 19.5358 E_Q_f: -17.0202 E_P_(f^2): 392.5949 E_Q_(f^2): 291.9239
[0/250][150/782][75] IPM_enum: 31.3736 IPM_denom: 18.1511 IPM_ratio: 1.7285 E_P_f: 10.5649 E_Q_f: -20.8086 E_P_(f^2): 220.5977 E_Q_(f^2): 438.3282
…
