Namespace(D_extra_layers=0, Diters=2, G_extra_layers=0, adam=False, batchSize=64, beta1=0.5, cuda=True, dataroot='dataroot_cifar/', dataset='cifar10', experiment=None, hiDiterStart=False, imageSize=32, lrD=5e-05, lrG=5e-05, mlp_D=False, mlp_G=False, nc=3, ndf=64, netD='', netG='', ngf=64, ngpu=1, niter=50, noBN=False, nz=100, rho=3e-07, wdecay=0.0, workers=2)
Random Seed:  2
Files already downloaded and verified
Dense_netG3 (
  (ur): ReLU (inplace)
  (uconv2): ConvTranspose2d(100, 256, kernel_size=(4, 4), stride=(1, 1), bias=False)
  (ubn2): BatchNorm2d(256, eps=1e-05, momentum=0.1, affine=True)
  (uconv2_d): ConvTranspose2d(256, 256, kernel_size=(3, 3), stride=(1, 1), padding=(1, 1), bias=False)
  (ubn2_d): BatchNorm2d(256, eps=1e-05, momentum=0.1, affine=True)
  (uconv3): ConvTranspose2d(512, 128, kernel_size=(4, 4), stride=(2, 2), padding=(1, 1), bias=False)
  (ubn3): BatchNorm2d(128, eps=1e-05, momentum=0.1, affine=True)
  (uconv3_d): ConvTranspose2d(128, 128, kernel_size=(3, 3), stride=(1, 1), padding=(1, 1), bias=False)
  (ubn3_d): BatchNorm2d(128, eps=1e-05, momentum=0.1, affine=True)
  (uconv4): ConvTranspose2d(256, 64, kernel_size=(4, 4), stride=(2, 2), padding=(1, 1), bias=False)
  (ubn4): BatchNorm2d(64, eps=1e-05, momentum=0.1, affine=True)
  (uconv_f1): ConvTranspose2d(64, 64, kernel_size=(3, 3), stride=(1, 1), padding=(1, 1), bias=False)
  (ubn_f1): BatchNorm2d(64, eps=1e-05, momentum=0.1, affine=True)
  (uconv_f2): ConvTranspose2d(128, 64, kernel_size=(3, 3), stride=(1, 1), padding=(1, 1), bias=False)
  (ubn_f2): BatchNorm2d(64, eps=1e-05, momentum=0.1, affine=True)
  (uconv5): ConvTranspose2d(192, 3, kernel_size=(4, 4), stride=(2, 2), padding=(1, 1), bias=False)
  (ufinal): Tanh ()
)
DC_netD2 (
  (conv1): Conv2d(3, 64, kernel_size=(4, 4), stride=(2, 2), padding=(1, 1), bias=False)
  (lr): LeakyReLU (0.2, inplace)
  (conv_f1): Conv2d(64, 64, kernel_size=(3, 3), stride=(1, 1), padding=(1, 1), bias=False)
  (bn_f1): BatchNorm2d(64, eps=1e-05, momentum=0.1, affine=True)
  (conv_f2): Conv2d(64, 64, kernel_size=(3, 3), stride=(1, 1), padding=(1, 1), bias=False)
  (bn_f2): BatchNorm2d(64, eps=1e-05, momentum=0.1, affine=True)
  (conv2): Conv2d(64, 128, kernel_size=(4, 4), stride=(2, 2), padding=(1, 1), bias=False)
  (bn1): BatchNorm2d(128, eps=1e-05, momentum=0.1, affine=True)
  (conv3): Conv2d(128, 256, kernel_size=(4, 4), stride=(2, 2), padding=(1, 1), bias=False)
  (bn2): BatchNorm2d(256, eps=1e-05, momentum=0.1, affine=True)
  (conv4): Conv2d(256, 1, kernel_size=(4, 4), stride=(1, 1), bias=False)
)
Len of data loader = 782
[0/50][50/782][25] IPM_enum: 10.2201 IPM_denom: 6.0048 IPM_ratio: 1.7020 E_P_f: 6.8317 E_Q_f: -3.3884 E_P_(f^2): 60.4083 E_Q_(f^2): 11.7067
[0/50][100/782][50] IPM_enum: 8.0768 IPM_denom: 5.4845 IPM_ratio: 1.4727 E_P_f: 4.9033 E_Q_f: -3.1735 E_P_(f^2): 46.2322 E_Q_(f^2): 13.9267
[0/50][150/782][75] IPM_enum: 5.5806 IPM_denom: 4.5586 IPM_ratio: 1.2242 E_P_f: 0.7933 E_Q_f: -4.7873 E_P_(f^2): 15.0053 E_Q_(f^2): 26.5557
…
