Namespace(D_extra_layers=0, Diters=2, G_extra_layers=0, adam=False, batchSize=64, beta1=0.5, cuda=True, dataroot='dataroot_cifar/', dataset='cifar10', experiment=None, hiDiterStart=False, imageSize=32, lrD=5e-05, lrG=5e-05, mlp_D=False, mlp_G=False, nc=3, ndf=64, netD='', netG='', ngf=64, ngpu=1, niter=50, noBN=False, nz=100, rho=3e-07, wdecay=0.0, workers=2)
Random Seed:  2
Files already downloaded and verified
DC_netG2 (
  (ur): ReLU (inplace)
  (uconv2): ConvTranspose2d(100, 256, kernel_size=(4, 4), stride=(1, 1), bias=False)
  (ubn2): BatchNorm2d(256, eps=1e-05, momentum=0.1, affine=True)
  (uconv3): ConvTranspose2d(256, 128, kernel_size=(4, 4), stride=(2, 2), padding=(1, 1), bias=False)
  (ubn3): BatchNorm2d(128, eps=1e-05, momentum=0.1, affine=True)
  (uconv4): ConvTranspose2d(128, 64, kernel_size=(4, 4), stride=(2, 2), padding=(1, 1), bias=False)
  (ubn4): BatchNorm2d(64, eps=1e-05, momentum=0.1, affine=True)
  (uconv_f1): ConvTranspose2d(64, 64, kernel_size=(3, 3), stride=(1, 1), padding=(1, 1), bias=False)
  (ubn_f1): BatchNorm2d(64, eps=1e-05, momentum=0.1, affine=True)
  (uconv_f2): ConvTranspose2d(64, 64, kernel_size=(3, 3), stride=(1, 1), padding=(1, 1), bias=False)
  (ubn_f2): BatchNorm2d(64, eps=1e-05, momentum=0.1, affine=True)
  (uconv5): ConvTranspose2d(64, 3, kernel_size=(4, 4), stride=(2, 2), padding=(1, 1), bias=False)
  (ufinal): Tanh ()
)
DC_netD2 (
  (conv1): Conv2d(3, 64, kernel_size=(4, 4), stride=(2, 2), padding=(1, 1), bias=False)
  (lr): LeakyReLU (0.2, inplace)
  (conv_f1): Conv2d(64, 64, kernel_size=(3, 3), stride=(1, 1), padding=(1, 1), bias=False)
  (bn_f1): BatchNorm2d(64, eps=1e-05, momentum=0.1, affine=True)
  (conv_f2): Conv2d(64, 64, kernel_size=(3, 3), stride=(1, 1), padding=(1, 1), bias=False)
  (bn_f2): BatchNorm2d(64, eps=1e-05, momentum=0.1, affine=True)
  (conv2): Conv2d(64, 128, kernel_size=(4, 4), stride=(2, 2), padding=(1, 1), bias=False)
  (bn1): BatchNorm2d(128, eps=1e-05, momentum=0.1, affine=True)
  (conv3): Conv2d(128, 256, kernel_size=(4, 4), stride=(2, 2), padding=(1, 1), bias=False)
  (bn2): BatchNorm2d(256, eps=1e-05, momentum=0.1, affine=True)
  (conv4): Conv2d(256, 1, kernel_size=(4, 4), stride=(1, 1), bias=False)
)
Len of data loader = 782
[0/50][50/782][25] IPM_enum: 21.8057 IPM_denom: 11.3357 IPM_ratio: 1.9236 E_P_f: 12.4190 E_Q_f: -9.3867 E_P_(f^2): 167.8818 E_Q_(f^2): 89.1155
[0/50][100/782][50] IPM_enum: 35.7560 IPM_denom: 18.1116 IPM_ratio: 1.9742 E_P_f: 19.3567 E_Q_f: -16.3994 E_P_(f^2): 384.8551 E_Q_(f^2): 271.2025
[0/50][150/782][75] IPM_enum: 32.6047 IPM_denom: 17.5872 IPM_ratio: 1.8539 E_P_f: 14.4662 E_Q_f: -18.1385 E_P_(f^2): 283.6785 E_Q_(f^2): 334.9409
…
