Namespace(D_extra_layers=0, Diters=5, G_extra_layers=0, adam=False, batchSize=64, beta1=0.5, cuda=True, dataroot='dataroot_celeba/', dataset='celeba', experiment=None, hiDiterStart=False, imageSize=64, lrD=5e-05, lrG=5e-05, mlp_D=False, mlp_G=False, nc=3, ndf=64, netD='', netG='', ngf=64, ngpu=1, niter=30, noBN=False, nz=100, rho=1e-06, wdecay=0.0, workers=2)
Random Seed:  2
Dense_netG_mini_complete_64 (
  (ur): ReLU (inplace)
  (uconv1): ConvTranspose2d(100, 512, kernel_size=(4, 4), stride=(1, 1), bias=False)
  (ubn1): BatchNorm2d(512, eps=1e-05, momentum=0.1, affine=True)
  (uconv1_d1): ConvTranspose2d(512, 256, kernel_size=(3, 3), stride=(1, 1), padding=(1, 1), bias=False)
  (ubn1_d1): BatchNorm2d(256, eps=1e-05, momentum=0.1, affine=True)
  (uconv1_d2): ConvTranspose2d(768, 256, kernel_size=(3, 3), stride=(1, 1), padding=(1, 1), bias=False)
  (ubn1_d2): BatchNorm2d(256, eps=1e-05, momentum=0.1, affine=True)
  (uconv2): ConvTranspose2d(1024, 256, kernel_size=(4, 4), stride=(2, 2), padding=(1, 1), bias=False)
  (ubn2): BatchNorm2d(256, eps=1e-05, momentum=0.1, affine=True)
  (uconv2_d1): ConvTranspose2d(256, 128, kernel_size=(3, 3), stride=(1, 1), padding=(1, 1), bias=False)
  (ubn2_d1): BatchNorm2d(128, eps=1e-05, momentum=0.1, affine=True)
  (uconv2_d2): ConvTranspose2d(384, 128, kernel_size=(3, 3), stride=(1, 1), padding=(1, 1), bias=False)
  (ubn2_d2): BatchNorm2d(128, eps=1e-05, momentum=0.1, affine=True)
  (uconv3): ConvTranspose2d(512, 128, kernel_size=(4, 4), stride=(2, 2), padding=(1, 1), bias=False)
  (ubn3): BatchNorm2d(128, eps=1e-05, momentum=0.1, affine=True)
  (uconv3_d1): ConvTranspose2d(128, 64, kernel_size=(3, 3), stride=(1, 1), padding=(1, 1), bias=False)
  (ubn3_d1): BatchNorm2d(64, eps=1e-05, momentum=0.1, affine=True)
  (uconv3_d2): ConvTranspose2d(192, 64, kernel_size=(3, 3), stride=(1, 1), padding=(1, 1), bias=False)
  (ubn3_d2): BatchNorm2d(64, eps=1e-05, momentum=0.1, affine=True)
  (uconv4): ConvTranspose2d(256, 64, kernel_size=(4, 4), stride=(2, 2), padding=(1, 1), bias=False)
  (ubn4): BatchNorm2d(64, eps=1e-05, momentum=0.1, affine=True)
  (uconv_f1): ConvTranspose2d(64, 64, kernel_size=(3, 3), stride=(1, 1), padding=(1, 1), bias=False)
  (ubn_f1): BatchNorm2d(64, eps=1e-05, momentum=0.1, affine=True)
  (uconv_f2): ConvTranspose2d(128, 64, kernel_size=(3, 3), stride=(1, 1), padding=(1, 1), bias=False)
  (ubn_f2): BatchNorm2d(64, eps=1e-05, momentum=0.1, affine=True)
  (uconv5): ConvTranspose2d(192, 3, kernel_size=(4, 4), stride=(2, 2), padding=(1, 1), bias=False)
  (ufinal): Tanh ()
)
DC_netD2_64 (
  (conv1): Conv2d(3, 64, kernel_size=(4, 4), stride=(2, 2), padding=(1, 1), bias=False)
  (lr): LeakyReLU (0.2, inplace)
  (conv2): Conv2d(64, 128, kernel_size=(4, 4), stride=(2, 2), padding=(1, 1), bias=False)
  (bn1): BatchNorm2d(128, eps=1e-05, momentum=0.1, affine=True)
  (conv3): Conv2d(128, 256, kernel_size=(4, 4), stride=(2, 2), padding=(1, 1), bias=False)
  (bn2): BatchNorm2d(256, eps=1e-05, momentum=0.1, affine=True)
  (conv3v2): Conv2d(256, 512, kernel_size=(4, 4), stride=(2, 2), padding=(1, 1), bias=False)
  (bn2v2): BatchNorm2d(512, eps=1e-05, momentum=0.1, affine=True)
  (conv4): Conv2d(512, 1, kernel_size=(4, 4), stride=(1, 1), bias=False)
)
Len of data loader = 3166
[0/30][100/3166][20] IPM_enum: 42.6284 IPM_denom: 22.1087 IPM_ratio: 1.9281 E_P_f: 23.2911 E_Q_f: -19.3373 E_P_(f^2): 597.9532 E_Q_(f^2): 379.6321
[0/30][200/3166][40] IPM_enum: 18.5124 IPM_denom: 9.9344 IPM_ratio: 1.8635 E_P_f: 9.6628 E_Q_f: -8.8496 E_P_(f^2): 113.8505 E_Q_(f^2): 83.5328
[0/30][300/3166][60] IPM_enum: 18.1658 IPM_denom: 9.9435 IPM_ratio: 1.8269 E_P_f: 8.8742 E_Q_f: -9.2916 E_P_(f^2): 104.4341 E_Q_(f^2): 93.3141
…
