Namespace(D_extra_layers=0, Diters=5, G_extra_layers=0, adam=False, batchSize=64, beta1=0.5, cuda=True, dataroot='dataroot_celeba/', dataset='celeba', experiment=None, hiDiterStart=False, imageSize=64, lrD=5e-05, lrG=5e-05, mlp_D=False, mlp_G=False, nc=3, ndf=64, netD='', netG='', ngf=64, ngpu=1, niter=30, noBN=False, nz=100, rho=1e-06, wdecay=0.0, workers=2)
Random Seed:  2
Dense_netG3_64 (
  (ur): ReLU (inplace)
  (uconv1): ConvTranspose2d(100, 512, kernel_size=(4, 4), stride=(1, 1), bias=False)
  (ubn1): BatchNorm2d(512, eps=1e-05, momentum=0.1, affine=True)
  (uconv1_d): ConvTranspose2d(512, 256, kernel_size=(3, 3), stride=(1, 1), padding=(1, 1), bias=False)
  (ubn1_d): BatchNorm2d(256, eps=1e-05, momentum=0.1, affine=True)
  (uconv2): ConvTranspose2d(768, 256, kernel_size=(4, 4), stride=(2, 2), padding=(1, 1), bias=False)
  (ubn2): BatchNorm2d(256, eps=1e-05, momentum=0.1, affine=True)
  (uconv2_d): ConvTranspose2d(256, 128, kernel_size=(3, 3), stride=(1, 1), padding=(1, 1), bias=False)
  (ubn2_d): BatchNorm2d(128, eps=1e-05, momentum=0.1, affine=True)
  (uconv3): ConvTranspose2d(384, 128, kernel_size=(4, 4), stride=(2, 2), padding=(1, 1), bias=False)
  (ubn3): BatchNorm2d(128, eps=1e-05, momentum=0.1, affine=True)
  (uconv3_d): ConvTranspose2d(128, 64, kernel_size=(3, 3), stride=(1, 1), padding=(1, 1), bias=False)
  (ubn3_d): BatchNorm2d(64, eps=1e-05, momentum=0.1, affine=True)
  (uconv4): ConvTranspose2d(192, 64, kernel_size=(4, 4), stride=(2, 2), padding=(1, 1), bias=False)
  (ubn4): BatchNorm2d(64, eps=1e-05, momentum=0.1, affine=True)
  (uconv_f1): ConvTranspose2d(64, 64, kernel_size=(3, 3), stride=(1, 1), padding=(1, 1), bias=False)
  (ubn_f1): BatchNorm2d(64, eps=1e-05, momentum=0.1, affine=True)
  (uconv_f2): ConvTranspose2d(128, 64, kernel_size=(3, 3), stride=(1, 1), padding=(1, 1), bias=False)
  (ubn_f2): BatchNorm2d(64, eps=1e-05, momentum=0.1, affine=True)
  (uconv5): ConvTranspose2d(192, 3, kernel_size=(4, 4), stride=(2, 2), padding=(1, 1), bias=False)
  (ufinal): Tanh ()
)
DC_netD2_64 (
  (conv1): Conv2d(3, 64, kernel_size=(4, 4), stride=(2, 2), padding=(1, 1), bias=False)
  (lr): LeakyReLU (0.2, inplace)
  (conv2): Conv2d(64, 128, kernel_size=(4, 4), stride=(2, 2), padding=(1, 1), bias=False)
  (bn1): BatchNorm2d(128, eps=1e-05, momentum=0.1, affine=True)
  (conv3): Conv2d(128, 256, kernel_size=(4, 4), stride=(2, 2), padding=(1, 1), bias=False)
  (bn2): BatchNorm2d(256, eps=1e-05, momentum=0.1, affine=True)
  (conv3v2): Conv2d(256, 512, kernel_size=(4, 4), stride=(2, 2), padding=(1, 1), bias=False)
  (bn2v2): BatchNorm2d(512, eps=1e-05, momentum=0.1, affine=True)
  (conv4): Conv2d(512, 1, kernel_size=(4, 4), stride=(1, 1), bias=False)
)
Len of data loader = 3166
[0/30][100/3166][20] IPM_enum: 44.5226 IPM_denom: 22.9727 IPM_ratio: 1.9381 E_P_f: 23.9563 E_Q_f: -20.5664 E_P_(f^2): 630.7205 E_Q_(f^2): 424.7679
[0/30][200/3166][40] IPM_enum: 25.7667 IPM_denom: 13.3697 IPM_ratio: 1.9272 E_P_f: 12.5190 E_Q_f: -13.2477 E_P_(f^2): 179.9954 E_Q_(f^2): 177.5040
[0/30][300/3166][60] IPM_enum: 23.5052 IPM_denom: 12.3138 IPM_ratio: 1.9089 E_P_f: 11.5737 E_Q_f: -11.9316 E_P_(f^2): 157.0128 E_Q_(f^2): 146.2461
…
