Namespace(D_extra_layers=0, Diters=5, G_extra_layers=0, adam=False, batchSize=64, beta1=0.5, cuda=True, dataroot='dataroot_celeba/', dataset='celeba', experiment=None, hiDiterStart=False, imageSize=64, lrD=5e-05, lrG=5e-05, mlp_D=False, mlp_G=False, nc=3, ndf=64, netD='', netG='', ngf=64, ngpu=1, niter=30, noBN=False, nz=100, rho=1e-06, wdecay=0.0, workers=2)
Random Seed:  2
GenDenseNet_64 (
  (conv1): ConvTranspose2d(100, 120, kernel_size=(3, 3), stride=(1, 1), padding=(1, 1), bias=False)
  (bn_1): BatchNorm2d(120, eps=1e-05, momentum=0.1, affine=True)
  (dense0): Sequential (
    (0): GenBottleneck (
      (bn1): BatchNorm2d(120, eps=1e-05, momentum=0.1, affine=True)
      (conv1): ConvTranspose2d(120, 48, kernel_size=(1, 1), stride=(1, 1), bias=False)
      (bn2): BatchNorm2d(48, eps=1e-05, momentum=0.1, affine=True)
      (conv2): ConvTranspose2d(48, 12, kernel_size=(3, 3), stride=(1, 1), padding=(1, 1), bias=False)
    )
  )
  (trans0): GenTransition (
    (bn1): BatchNorm2d(132, eps=1e-05, momentum=0.1, affine=True)
    (conv1): ConvTranspose2d(132, 108, kernel_size=(1, 1), stride=(1, 1), bias=False)
    (up1): Upsample(scale_factor=2, mode=nearest)
  )
  (dense1): Sequential (
    (0): GenBottleneck (
      (bn1): BatchNorm2d(108, eps=1e-05, momentum=0.1, affine=True)
      (conv1): ConvTranspose2d(108, 48, kernel_size=(1, 1), stride=(1, 1), bias=False)
      (bn2): BatchNorm2d(48, eps=1e-05, momentum=0.1, affine=True)
      (conv2): ConvTranspose2d(48, 12, kernel_size=(3, 3), stride=(1, 1), padding=(1, 1), bias=False)
    )
  )
  (trans1): GenTransition (
    (bn1): BatchNorm2d(120, eps=1e-05, momentum=0.1, affine=True)
    (conv1): ConvTranspose2d(120, 96, kernel_size=(1, 1), stride=(1, 1), bias=False)
    (up1): Upsample(scale_factor=2, mode=nearest)
  )
  (dense2): Sequential (
    (0): GenBottleneck (
      (bn1): BatchNorm2d(96, eps=1e-05, momentum=0.1, affine=True)
      (conv1): ConvTranspose2d(96, 48, kernel_size=(1, 1), stride=(1, 1), bias=False)
      (bn2): BatchNorm2d(48, eps=1e-05, momentum=0.1, affine=True)
      (conv2): ConvTranspose2d(48, 12, kernel_size=(3, 3), stride=(1, 1), padding=(1, 1), bias=False)
    )
  )
  (trans2): GenTransition (
    (bn1): BatchNorm2d(108, eps=1e-05, momentum=0.1, affine=True)
    (conv1): ConvTranspose2d(108, 84, kernel_size=(1, 1), stride=(1, 1), bias=False)
    (up1): Upsample(scale_factor=2, mode=nearest)
  )
  (dense3): Sequential (
    (0): GenBottleneck (
      (bn1): BatchNorm2d(84, eps=1e-05, momentum=0.1, affine=True)
      (conv1): ConvTranspose2d(84, 48, kernel_size=(1, 1), stride=(1, 1), bias=False)
      (bn2): BatchNorm2d(48, eps=1e-05, momentum=0.1, affine=True)
      (conv2): ConvTranspose2d(48, 12, kernel_size=(3, 3), stride=(1, 1), padding=(1, 1), bias=False)
    )
  )
  (trans3): GenTransition (
    (bn1): BatchNorm2d(96, eps=1e-05, momentum=0.1, affine=True)
    (conv1): ConvTranspose2d(96, 72, kernel_size=(1, 1), stride=(1, 1), bias=False)
    (up1): Upsample(scale_factor=2, mode=nearest)
  )
  (dense4): Sequential (
    (0): GenBottleneck (
      (bn1): BatchNorm2d(72, eps=1e-05, momentum=0.1, affine=True)
      (conv1): ConvTranspose2d(72, 48, kernel_size=(1, 1), stride=(1, 1), bias=False)
      (bn2): BatchNorm2d(48, eps=1e-05, momentum=0.1, affine=True)
      (conv2): ConvTranspose2d(48, 12, kernel_size=(3, 3), stride=(1, 1), padding=(1, 1), bias=False)
    )
  )
  (trans4): GenTransition (
    (bn1): BatchNorm2d(84, eps=1e-05, momentum=0.1, affine=True)
    (conv1): ConvTranspose2d(84, 60, kernel_size=(1, 1), stride=(1, 1), bias=False)
    (up1): Upsample(scale_factor=2, mode=nearest)
  )
  (dense5): Sequential (
    (0): GenBottleneck (
      (bn1): BatchNorm2d(60, eps=1e-05, momentum=0.1, affine=True)
      (conv1): ConvTranspose2d(60, 48, kernel_size=(1, 1), stride=(1, 1), bias=False)
      (bn2): BatchNorm2d(48, eps=1e-05, momentum=0.1, affine=True)
      (conv2): ConvTranspose2d(48, 12, kernel_size=(3, 3), stride=(1, 1), padding=(1, 1), bias=False)
    )
  )
  (trans5): GenTransition (
    (bn1): BatchNorm2d(72, eps=1e-05, momentum=0.1, affine=True)
    (conv1): ConvTranspose2d(72, 48, kernel_size=(1, 1), stride=(1, 1), bias=False)
    (up1): Upsample(scale_factor=2, mode=nearest)
  )
  (ur): ReLU (inplace)
  (ubn_e0): BatchNorm2d(48, eps=1e-05, momentum=0.1, affine=True)
  (uconv_e1): ConvTranspose2d(48, 48, kernel_size=(3, 3), stride=(1, 1), padding=(1, 1), bias=False)
  (ubn_e1): BatchNorm2d(48, eps=1e-05, momentum=0.1, affine=True)
  (uconv_e2): ConvTranspose2d(96, 48, kernel_size=(3, 3), stride=(1, 1), padding=(1, 1), bias=False)
  (ubn_e2): BatchNorm2d(48, eps=1e-05, momentum=0.1, affine=True)
  (bn_f): BatchNorm2d(144, eps=1e-05, momentum=0.1, affine=True)
  (conv_f): ConvTranspose2d(144, 3, kernel_size=(3, 3), stride=(1, 1), padding=(1, 1), bias=False)
  (ufinal): Tanh ()
)
DC_netD2_64 (
  (conv1): Conv2d(3, 64, kernel_size=(4, 4), stride=(2, 2), padding=(1, 1), bias=False)
  (lr): LeakyReLU (0.2, inplace)
  (conv2): Conv2d(64, 128, kernel_size=(4, 4), stride=(2, 2), padding=(1, 1), bias=False)
  (bn1): BatchNorm2d(128, eps=1e-05, momentum=0.1, affine=True)
  (conv3): Conv2d(128, 256, kernel_size=(4, 4), stride=(2, 2), padding=(1, 1), bias=False)
  (bn2): BatchNorm2d(256, eps=1e-05, momentum=0.1, affine=True)
  (conv3v2): Conv2d(256, 512, kernel_size=(4, 4), stride=(2, 2), padding=(1, 1), bias=False)
  (bn2v2): BatchNorm2d(512, eps=1e-05, momentum=0.1, affine=True)
  (conv4): Conv2d(512, 1, kernel_size=(4, 4), stride=(1, 1), bias=False)
)
Len of data loader = 3166
[0/30][100/3166][20] IPM_enum: 43.9536 IPM_denom: 22.8758 IPM_ratio: 1.9214 E_P_f: 21.7039 E_Q_f: -22.2497 E_P_(f^2): 530.0610 E_Q_(f^2): 516.5463
[0/30][200/3166][40] IPM_enum: 26.6560 IPM_denom: 13.6685 IPM_ratio: 1.9502 E_P_f: 14.1657 E_Q_f: -12.4903 E_P_(f^2): 211.2415 E_Q_(f^2): 162.4120
[0/30][300/3166][60] IPM_enum: 21.6506 IPM_denom: 11.0179 IPM_ratio: 1.9650 E_P_f: 11.1749 E_Q_f: -10.4756 E_P_(f^2): 128.3521 E_Q_(f^2): 114.4362
…
