Namespace(D_extra_layers=0, Diters=5, G_extra_layers=0, adam=False, batchSize=64, beta1=0.5, cuda=True, dataroot='dataroot_celeba/', dataset='celeba', experiment=None, hiDiterStart=False, imageSize=64, lrD=5e-05, lrG=5e-05, mlp_D=False, mlp_G=False, nc=3, ndf=64, netD='', netG='', ngf=64, ngpu=1, niter=30, noBN=False, nz=100, rho=1e-06, wdecay=0.0, workers=2)
Random Seed:  2
DC_netG2_64 (
  (ur): ReLU (inplace)
  (uconv1): ConvTranspose2d(100, 512, kernel_size=(4, 4), stride=(1, 1), bias=False)
  (ubn1): BatchNorm2d(512, eps=1e-05, momentum=0.1, affine=True)
  (uconv2): ConvTranspose2d(512, 256, kernel_size=(4, 4), stride=(2, 2), padding=(1, 1), bias=False)
  (ubn2): BatchNorm2d(256, eps=1e-05, momentum=0.1, affine=True)
  (uconv3): ConvTranspose2d(256, 128, kernel_size=(4, 4), stride=(2, 2), padding=(1, 1), bias=False)
  (ubn3): BatchNorm2d(128, eps=1e-05, momentum=0.1, affine=True)
  (uconv4): ConvTranspose2d(128, 64, kernel_size=(4, 4), stride=(2, 2), padding=(1, 1), bias=False)
  (ubn4): BatchNorm2d(64, eps=1e-05, momentum=0.1, affine=True)
  (uconv5): ConvTranspose2d(64, 3, kernel_size=(4, 4), stride=(2, 2), padding=(1, 1), bias=False)
  (ufinal): Tanh ()
)
DC_netD2_64 (
  (conv1): Conv2d(3, 64, kernel_size=(4, 4), stride=(2, 2), padding=(1, 1), bias=False)
  (lr): LeakyReLU (0.2, inplace)
  (conv2): Conv2d(64, 128, kernel_size=(4, 4), stride=(2, 2), padding=(1, 1), bias=False)
  (bn1): BatchNorm2d(128, eps=1e-05, momentum=0.1, affine=True)
  (conv3): Conv2d(128, 256, kernel_size=(4, 4), stride=(2, 2), padding=(1, 1), bias=False)
  (bn2): BatchNorm2d(256, eps=1e-05, momentum=0.1, affine=True)
  (conv3v2): Conv2d(256, 512, kernel_size=(4, 4), stride=(2, 2), padding=(1, 1), bias=False)
  (bn2v2): BatchNorm2d(512, eps=1e-05, momentum=0.1, affine=True)
  (conv4): Conv2d(512, 1, kernel_size=(4, 4), stride=(1, 1), bias=False)
)
Len of data loader = 3166
[0/30][100/3166][20] IPM_enum: 46.5007 IPM_denom: 23.4761 IPM_ratio: 1.9808 E_P_f: 23.4300 E_Q_f: -23.0707 E_P_(f^2): 569.1602 E_Q_(f^2): 533.0936
[0/30][200/3166][40] IPM_enum: 28.3197 IPM_denom: 14.2446 IPM_ratio: 1.9881 E_P_f: 14.2197 E_Q_f: -14.1000 E_P_(f^2): 206.7825 E_Q_(f^2): 199.0341
[0/30][300/3166][60] IPM_enum: 22.4312 IPM_denom: 11.2734 IPM_ratio: 1.9897 E_P_f: 10.9539 E_Q_f: -11.4773 E_P_(f^2): 122.1887 E_Q_(f^2): 131.9917
…
